…
r.untyped_storage() instead of tensor.storage()
  return self.fget.__get__(instance, owner)()
Loading checkpoint shards:  50%|█████     | 1/2 [01:00<01:00, 60.21s/it]Loading checkpoint shards: 100%|██████████| 2/2 [01:11<00:00, 31.50s/it]Loading checkpoint shards: 100%|██████████| 2/2 [01:11<00:00, 35.81s/it]
Obtaining direction

> /workspace/VTI/experiments/eval/run_mmhal_vti.py(101)eval_model()
-> competitor_hook = CompetitorIntervention(args.competitor, **kwargs)
(Pdb) CLIPVisionModel(
  (vision_model): CLIPVisionTransformer(
    (embeddings): CLIPVisionEmbeddings(
      (patch_embedding): Conv2d(3, 1024, kernel_size=(14, 14), stride=(14, 14), bias=False)
      (position_embedding): Embedding(577, 1024)
    )
    (pre_layrnorm): LayerNorm((1024,), eps=1e-05, elementwise_affine=True)
    (encoder): CLIPEncoder(
      (layers): ModuleList(
        (0-23): 24 x CLIPEncoderLayer(
          (self_attn): CLIPAttention(
            (k_proj): Linear(in_features=1024, out_features=1024, bias=True)
            (v_proj): Linear(in_features=1024, out_features=1024, bias=True)
            (q_proj): Linear(in_features=1024, out_features=1024, bias=True)
            (out_proj): Linear(in_features=1024, out_features=1024, bias=True)
          )
          (layer_norm1): LayerNorm((1024,), eps=1e-05, elementwise_affine=True)
          (mlp): CLIPMLP(
            (activation_fn): QuickGELUActivation()
            (fc1): Linear(in_features=1024, out_features=4096, bias=True)
            (fc2): Linear(in_features=4096, out_features=1024, bias=True)
          )
          (layer_norm2): LayerNorm((1024,), eps=1e-05, elementwise_affine=True)
        )
      )
    )
    (post_layernorm): LayerNorm((1024,), eps=1e-05, elementwise_affine=True)
  )
)
(Pdb) 